# Ultralytics YOLO 🚀, GPL-3.0 license

# Parameters
nc: 80 # number of classes
depth_multiple: 0.33 # scales module repeats
width_multiple: 0.50 # scales convolution channels

# YOLOv8.0s backbone
backbone:
  # [from, repeats, module, args]
  - [-1, 1, Conv, [64, 3, 2]] # 0-P1/2
  - [-1, 1, Conv, [128, 3, 2]] # 1-P2/4
  - [-1, 3, C2f, [128, True]]
  - [-1, 1, Conv, [256, 3, 2]] # 3-P3/8
  - [-1, 6, C2f, [256, True]]
  - [-1, 1, Conv, [512, 3, 2]] # 5-P4/16
  - [-1, 6, C2f, [512, True]]
  - [-1, 1, SPPF, [512, 5]] # 7

# YOLOv8.0s head
head:
  - [-1, 1, nn.Upsample, [None, 2, "nearest"]]
  - [[-1, 4], 1, Concat, [1]] # cat backbone P3
  - [-1, 3, C2f, [256]] # 10 (P3/8-small)

  - [-1, 1, Conv, [256, 3, 2]]
  - [[-1, 7], 1, Concat, [1]] # cat head P4
  - [-1, 3, C2f, [512]] # 13 (P4/16-medium)

  - [[10, 13], 1, Detect, [nc]] # Detect(P3, P4)
